snntb/snntb_runs/log/gui/lenet_18/normalization/activations/weights.npz (npz, 164911 bytes, 5 tensors)

0Conv2D_24x24x6 f4 [5, 5, 1, 6]
-0.15470542 -0.26399052 -0.08118691 -0.0027505942 0.17050742 0.2753976 0.1587454 -0.30068743
0.15408419 -0.046036135 0.3017834 0.28008732 0.08088382 -0.48678407 0.16407105 -0.19652055
0.13496576 0.34617633 -0.06852744 -0.29968393 -0.17040631 0.10133975 0.149384 0.34469333
0.17502606 -0.05658266 0.057649527 -0.024452437 -0.05845566 0.08373769 0.20856121 0.0049231197
0.09773624 0.00842887 0.15487812 0.24007998 0.2606654 -0.18927856 0.03564385 0.036423948
0.2239074 0.09534224 0.29295513 -0.13871378 0.24802582 -0.013095714 0.21259092 0.12885402
0.05059345 -0.072733834 -0.050419517 -0.115352325 0.17497352 0.08918756 -0.10355925 -0.016112369
-0.09534599 -0.18030424 -0.14667918 0.07143529 0.15658742 -0.13324271 0.21525921 0.02142692
-0.031011203 -0.2584522 0.04436844 -0.037913524 -0.026518645 0.044381697 0.17722248 -0.13611935
0.14461978 -0.06264553 0.08135373 0.09781837 0.19908136 -0.14974418 0.23236229 0.03904301
-0.119083844 0.26255053 -0.015563301 -0.02565442 0.10605802 0.2941295 -0.0901679 0.22067313
-0.34291184 -0.07746727 -0.090908214 0.16429983 -0.12355352 0.014954287 0.09933007 -0.30160272
0.13580628 -0.06873297 -0.06519425 0.32554018 0.22820534 -0.27741203 0.003642444 0.2912881
-0.09468232 0.30868196 -0.08487587 -0.40383318 0.1447584 0.22356805 0.13721202 0.09133283
-0.13618836 -0.2432787 0.047678895 0.25573325 0.053677447 -0.0031478677 -0.37933317 -0.0036551114
-0.21020792 0.052445553 0.18223068 0.21449432 0.23863885 -0.028087884 0.01369849 0.26521838
0.20556179 0.14385584 0.13941883 -0.08448754 0.01990633 0.19380064 0.2245509 0.15360895
0.059216745 -0.008911164 0.082797654 0.32171464 0.08906733 0.10045222 -0.33917442 0.03230115
0.008734472 -0.015091351 -0.07255727 -0.019097855 -0.43891457 -0.024461923
00000000: 196b 1ebe c429 87be 5345 a6bd 5043 34bb
00000010: 7f99 2e3e ea00 8d3e 278e 223e b4f3 99be
00000020: 3fc8 1d3e 6390 3cbd 5b83 9a3e 9b67 8f3e
00000030: 6ba6 a53d c33b f9be 3e02 283e af3c 49be
00000040: 7734 0a3e 063e b13e 1d58 8cbd 2c70 99be
00000050: fe7e 2ebe 378b cf3d 1ff8 183e a57b b03e
00000060: 083a 333e 38c3 67bd e921 6c3d 7a50 c8bc
00000070: 346f 6fbd aa7e ab3d 1291 553e 1f52 a13b
00000080: f029 c83d 3e19 0a3c 5f98 1e3e 87d7 753e
00000090: ef75 853e 3dd2 41be 49ff 113d 4731 153d
000000a0: fb47 653e cb42 c33d 37fe 953e fc0a 0ebe
000000b0: 7bfa 7d3e 688f 56bc 6fb1 593e 4ff2 033e
000000c0: 143b 4f3d 7af5 94bd b284 4ebd d73d ecbd
000000d0: 422c 333e f8a7 b63d df16 d4bd 16fe 83bc
000000e0: c244 c3bd ada1 38be 1133 16be aa4c 923d
000000f0: 7458 203e c770 08be e96c 5c3e 8287 af3c
00000100: 350b febc d953 84be aebb 353d 364b 1bbd
00000110: a13d d9bc 95c9 353d cf79 353e df62 0bbe
00000120: 3517 143e 4d4c 80bd c99c a63d ff54 c83d
00000130: fcdb 4b3e 8a56 19be 61f0 6d3e 90eb 1f3d
00000140: 3be2 f3bd 066d 863e 37fd 7ebc 3829 d2bc
00000150: f234 d93d 2498 963e f3a9 b8bd 23f8 613e
00000160: 2492 afbe 29a7 9ebd 162e babd 373e 283e
00000170: a109 fdbd d302 753c 906d cb3d ac6b 9abe
00000180: cd10 0b3e dfc3 8cbd 9084 85bd 34ad a63e
00000190: a9ae 693e f308 8ebe 12b6 6e3b b723 953e
000001a0: cee8 c1bd 900b 9e3e 66d3 adbd 39c3 cebe
000001b0: 8c3b 143e 06ef 643e 4f81 0c3e b50c bb3d
000001c0: f674 0bbe 0d1e 79be f24a 433d 78ef 823e
000001d0: e2dc 5b3d 754c 4ebb f537 c2be 988a 6fbb
000001e0: bf40 57be 26d1 563d ae9a 3a3e 66a4 5b3e
000001f0: be5d 743e 9018 e6bc a26f 603c b4ca 873e
00000200: ca7e 523e f24e 133e cfc3 0e3e ce07 adbd
00000210: 9a12 a33c ad73 463e acf0 653e aa4b 1d3e
00000220: 428d 723d 2100 12bc d191 a93d c8b7 a43e
00000230: ef68 b63d e5b9 cd3d 45a8 adbe 364e 043d
00000240: 081b 0f3c b741 77bc e898 94bd 1b73 9cbc
00000250: 69b9 e0be 5f64 c8bc

2Conv2D_8x8x16 f4 [5, 5, 6, 16]
-0.03766564 -0.05230232 -0.027956344 -0.020816656 -0.061300512 -0.1535391 0.0260096 0.1301274
0.030434802 0.12450405 -0.020471686 0.07686588 -0.07506417 -0.14520864 -0.06874367 -0.013396588
-0.080189 0.11855603 0.06288746 0.041218217 -0.0818858 0.0067608855 -0.04948684 -0.08776687
0.07917361 0.105169535 0.080851585 -0.026959166 0.05111131 0.040989812 0.028190454 -0.10576594
-0.07388678 0.028855955 0.079687335 0.046664443 -0.11140199 -0.2055742 -0.081495464 0.03789256
-0.049878176 -0.007581508 -0.023784447 0.09492923 0.057262372 -0.081244215 -0.041374486 0.020085
-0.09559033 0.10742729 -0.012845232 0.01891983 -0.06964304 -0.24748051 0.0105101885 0.013171147
0.08475229 0.19407675 0.078060776 -0.053512063 0.10125395 -0.08257058 -0.102991216 0.064124085
-0.048651952 -0.009529719 -0.1134454 -0.019859627 0.008788165 -0.07833814 0.108248085 -0.101476565
-0.073492184 0.15721144 -0.11539352 0.091129 0.048387825 0.036748767 0.06800286 -0.06115898
0.07627515 0.07650566 0.0435359 -0.11473236 0.029168352 0.1591569 0.081496365 0.027077762
0.01159695 -0.259712 0.13931607 -0.02721498 -0.12929918 -0.04268767 0.00058789353 -0.05073761
-0.07799465 -0.076591484 -0.054637235 -0.10597763 -0.014131435 -0.09126236 0.07746699 0.027268542
0.046072375 0.08882898 0.008312628 -0.0074956375 -0.095226504 -0.038426787 -0.104921654 0.11976675
-0.02273204 0.1571735 0.07450511 0.14262964 0.0037580775 0.07074358 0.11599232 0.11591785
0.1733885 -0.2258303 -0.06267114 0.101520106 -0.06353467 -0.03651948 -0.098589495 -0.14130487
0.024566472 0.061125018 0.025816698 0.0632846 0.024421236 0.028961109 0.052040566 0.080975264
-0.08535526 0.13575356 0.08108925 -0.0592613 -0.15322368 -0.03318051 -0.025969438 0.09540289
0.018542254 0.047125928 -0.06509788 0.12056057 0.031781673 0.03431495 -0.039219793 0.028587975
0.00873891 -0.022564217 0.073069036 0.019077191 -0.014843769 -0.122959994 -0.08371017 0.032218046
-0.056431647 0.029836018 -0.09609219 -0.038335968 -0.08087543 -0.12260908 0.13932663 -0.15223548
0.04804064 0.1971483 -0.090149716 0.10950832 -0.14039207 0.09852341 -0.026116965 -0.012222764
-0.031401716 -0.013879909 0.03748569 -0.07607298 -0.03194743 0.033478133 0.010451537 -0.036128957
-0.042166967 -0.13224229 0.029114647 -0.08502057 0.2089406 0.040555947 0.040582854 -0.028524712
0.0256434 -0.06953571 0.06570193 -0.008929913 -0.09039987 0.100227155 -0.07915898 0.009033419
0.08054733 -0.111546785 -0.025122972 -0.038700197 0.035816547 0.0873139 -0.08286266 0.07448071
-0.01579465 0.08117607 0.06996293 0.10393207 -0.011986479 0.14428474 -0.12869494 0.06703055
-0.00026049154 -0.29958472 0.04867921 0.10618105 -0.10915281 0.08118648 0.030464515 0.006028833
-0.060380667 -0.013058071 -0.01917989 -0.0011975317 -0.0155045325 0.13725346 -0.05809624 -0.06580024
-0.08048776 -0.13035923 0.10814672 0.044309843 -0.026700467 -0.03985597 -0.04153779 -0.026332796
-0.18979047 0.10166871 0.040823463 0.102944255 0.07456043 0.13041283 0.029310133 -0.02725127
-0.06632336 -0.14902802 0.10858587 0.17152663 -0.062494252 0.0065626954 -0.1633225 0.04738324
00000000: 4947 1abd f53a 56bd b404 e5bc b187 aabc
00000010: 3f16 7bbd 5b39 1dbe 1612 d53c 1e40 053e
00000020: 6852 f93c fbfb fe3d 3db4 a7bc dc6b 9d3d
00000030: 3ebb 99bd 93b1 14be 7bc9 8cbd 5d7d 5bbc
00000040: 213a a4bd 81cd f23d 24cb 803d 6fd4 283d
00000050: beb3 a7bd 6b8a dd3b b6b2 4abd 1ebf b3bd
00000060: c625 a23d 2063 d73d 8495 a53d 78d9 dcbc
00000070: 185a 513d efe4 273d abef e63c d09b d8bd
00000080: f451 97bd 5363 ec3c 1d33 a33d 3723 3f3d
00000090: ba26 e4bd 0b82 52be 18e7 a6bd 3b35 1b3d
000000a0: 0f4d 4cbd 4c6e f8bb 9ad7 c2bc 426a c23d
000000b0: f38b 6a3d 5e63 a6bd 4b78 29bd 4c89 a43c
000000c0: ddc4 c3bd d702 dc3d cf74 52bc c2fd 9a3c
000000d0: 03a1 8ebd 886b 7dbe ed32 2c3c cbcb 573c
000000e0: 9c92 ad3d 0ebc 463e 54de 9f3d 772f 5bbd
000000f0: 3b5e cf3d c41a a9bd 0fed d2bd 7d53 833d
00000100: 4547 47bd 8a22 1cbc 1056 e8bd a8b0 a2bc
00000110: 3cfc 0f3c bf6f a0bd 2cb1 dd3d f2d2 cfbd
00000120: 1283 96bd 09fc 203e 7053 ecbd d7a1 ba3d
00000130: 5032 463d e085 163d 1545 8b3d d781 7abd
00000140: 2536 9c3d 00af 9c3d b352 323d cdf8 eabd
00000150: 78f2 ee3c 07fa 223e 91e7 a63d 2fd2 dd3c
00000160: 2201 3e3c f9f8 84be dfa8 0e3e f3f1 debc
00000170: 0167 04be 44d9 2ebd de1c 1a3a 3dd2 4fbd
00000180: a9bb 9fbd ffdb 9cbd 4bcb 5fbd cd0a d9bd
00000190: 8987 67bc c3e7 babd 03a7 9e3d 4762 df3c
000001a0: 63b6 3c3d f8eb b53d b031 083c f79d f5bb
000001b0: 1d06 c3bd 6865 1dbd 2ae1 d6bd 4548 f53d
000001c0: 8b38 babc 17f2 203e 2396 983d 810d 123e
000001d0: 144a 763b 03e2 903d 628d ed3d 5666 ed3d
000001e0: c18c 313e 0f40 67be ba59 80bd c6e9 cf3d
000001f0: 771e 82bd 7395 15bd 4ae9 c9bd 39b2 10be
00000200: a03f c93c 3a5e 7a3d 8a7d d33c 5b9b 813d
00000210: 0b0f c83c d93f ed3c 7d28 553d 5cd6 a53d
00000220: bdce aebd fb02 0b3e 1f12 a63d fabb 72bd
00000230: abe6 1cbe 49e8 07bd dcbd d4bc 9762 c33d
00000240: ede5 973c 1e07 413d 0a52 85bd 76e8 f63d
00000250: 802d 023d d58d 0c3d efa4 20bd 5431 ea3c
00000260: a52d 0f3c 98d8 b8bc 38a5 953d c547 9c3c
00000270: 4833 73bc 73d2 fbbd 3d70 abbd 12f7 033d
00000280: df24 67bd aa6a f43c fbcb c4bd 2d06 1dbd
00000290: 04a2 a5bd 781a fbbd a4ab 0e3e 9ee3 1bbe
000002a0: 43c6 443d 3ee1 493e 6aa0 b8bd e645 e03d
000002b0: f0c2 0fbe a4c6 c93d 3ff3 d5bc fd41 48bc
000002c0: 169f 00bd 8f68 63bc 988a 193d 27cc 9bbd
000002d0: 4fdb 02bd 5e20 093d ec3c 2b3c f5fb 13bd
000002e0: 45b7 2cbd 866a 07be d781 ee3c 441f aebd
000002f0: 86f4 553e fe1d 263d 353a 263d a8ac e9bc
00000300: 1c12 d23c bd68 8ebd bc8e 863d c54e 12bc
00000310: 9123 b9bd e543 cd3d 1a1e a2bd e800 143c
00000320: 00f6 a43d a472 e4bd b1ce cdbc 1984 1ebd
00000330: 5fb4 123d a1d1 b23d e6b3 a9bd 5889 983d
00000340: c863 81bc a43f a63d ba48 8f3d 56da d43d
00000350: f062 44bc 61bf 133e 9bc8 03be 5047 893d
00000360: 9592 88b9 2b63 99be da63 473d 7375 d93d
00000370: 828b dfbd 1945 a63d b890 f93c 848d c53b
00000380: b851 77bd 85f1 55bc 251f 9dbc 7ff6 9cba
00000390: b906 7ebc 2c8c 0c3e 53f6 6dbd 47c2 86bd
000003a0: c4d6 a4bd e47c 05be 077c dd3d 3d7e 353d
000003b0: f0ba dabc 0340 23bd 8823 2abd e0b7 d7bc
000003c0: 6f58 42be af37 d03d 8136 273d 70d4 d23d
000003d0: 24b3 983d f18a 053e ce1b f03c 0e3e dfbc
000003e0: 8bd4 87bd cd9a 18be 4562 de3d ada4 2f3e
000003f0: f9f9 7fbd e10b d73b 033e 27be ee14 423d

5Dense_120 f4 [256, 120]
0.027067661 -0.15943415 0.06955438 -0.052794 0.073910184 0.058073148 0.13424969 0.023943491
0.017505843 0.08523475 -0.019250661 -0.02934886 0.14250049 0.071882635 -0.10000603 0.07545917
0.05971717 -0.016984273 0.06714707 0.03522764 -0.082477 -0.09047886 0.03598323 0.17304742
0.040909756 0.10770607 0.062295165 -0.0336231 -0.18794557 -0.050850213 -0.036848787 -0.08236196
0.012764872 -0.11442977 0.14511627 -0.06535457 0.027710127 -0.015290001 -0.098640785 0.04119931
0.13565753 -0.03191842 -0.08409744 0.055765074 -0.09360751 -0.030496918 0.033560842 -0.059432354
-0.060901925 -0.115610816 -0.13535519 -0.05904281 -0.024391873 -0.014546233 -0.1485818 0.048587773
0.033315837 -0.138717 -0.06013095 -0.034240786 0.08750263 0.052003518 0.093884185 0.02711136
0.059580505 0.07794962 0.08388055 0.11143381 -0.0019488776 -0.10774108 -0.0747093 -0.04144839
0.032969143 0.0038127066 -0.05419933 -0.093433894 -0.078827634 0.018230384 0.010580585 0.053373076
0.07026889 -0.01864572 -0.03867894 0.10257308 -0.18014017 0.09154167 0.13904111 0.028628753
0.06446131 -0.005793084 -0.07880925 0.0852089 0.07370323 -0.012025854 0.009298848 0.10160669
-0.11633295 -0.02973904 0.031951528 -0.058063455 -0.045249525 0.092096485 -0.025794702 -0.113065
0.0070226127 0.05391822 -0.13584256 -0.117534176 0.021257507 0.0758701 0.09445868 -0.14181046
0.039641637 0.080856696 0.035944156 0.18446144 0.21252021 -0.03961072 0.009135191 0.08831468
-0.058660667 0.049673893 -0.017540608 0.08335385 -0.083182834 -0.019889636 0.08224845 0.039697334
0.025294514 -0.13808753 0.01655325 0.07269954 -0.0196466 0.012179516 0.05202267 -0.033703774
0.07778917 0.10118452 0.09994937 -0.057608712 0.017490689 -0.04515554 -0.049981795 0.012627119
-0.053612523 -0.12306131 -0.03862363 0.07599035 0.070389114 -0.11334562 0.06610425 -0.020514097
0.04414716 0.05196773 -0.06155466 0.05658222 -0.01956909 0.034125622 -0.007909492 -0.05214877
-0.07342769 -0.033558287 -0.031162335 0.08427975 -0.121091336 -0.12780891 0.13538434 -0.008811701
-0.037331175 0.12230597 -0.051906362 -0.037449945 0.0598958 0.02452096 -0.050024774 0.07607194
-0.13435233 -0.048877604 -0.059885994 0.022932889 0.03802984 -0.013552933 -0.0790561 -0.11618371
0.08164916 -0.14088932 -0.028178176 0.14901839 0.017288093 0.12001606 -0.015401023 -0.07626961
-0.08996687 0.07061445 -0.04655574 -0.15998027 0.066841505 0.10812904 -0.07489125 -0.07078826
-0.0220495 -0.031186253 0.11078142 -0.05811775 -0.04666793 0.054707248 0.022006005 0.05917672
-0.05839561 -0.06146526 -0.010367838 0.073340505 -0.13902336 0.049534496 -0.09498341 -0.024059122
-0.0052115945 0.040740367 0.06687058 0.02369517 0.05800779 -0.1231922 0.10529368 -0.058952607
0.050493184 -0.12447418 0.025288958 -0.072287306 0.11842974 0.12625332 -0.03826294 0.06429073
-0.02163918 0.0083825765 -0.0079261465 -0.077559605 0.013816117 -0.07528564 0.14859143 0.06916089
0.043772362 0.120668866 -0.14304541 0.14168364 0.10271313 0.0617757 -0.16431795 -0.06944383
0.15234862 -0.107113265 -0.015386287 0.014755459 0.09429683 -0.060491003 0.024892699 -0.08962076
00000000: 00bd dd3c b542 23be 8772 8e3d 853e 58bd
00000010: 395e 973d 1cde 6d3d c078 093e 2425 c43c
00000020: 6a68 8f3c 8e8f ae3d 90b3 9dbc 056d f0bc
00000030: a6eb 113e 3437 933d f6cf ccbd 568a 9a3d
00000040: fe99 743d 9a22 8bbc 6784 893d dc4a 103d
00000050: b4e9 a8bd fb4c b9bd 2763 133d 5833 313e
00000060: fd90 273d 0095 dc3d 3729 7f3d 60b8 09bd
00000070: ce74 40be 5048 50bd c1ee 16bd 63ad a8bd
00000080: c123 513c 285a eabd 5c99 143e 9ed8 85bd
00000090: 5900 e33c ea82 7abc 2e04 cabd 9cc0 283d
000000a0: cfe9 0a3e e4bc 02bd 473b acbd eb69 643d
000000b0: 4bb5 bfbd acd4 f9bc 1877 093d 576f 73bd
000000c0: 4c74 79bd 5dc5 ecbd 8d9a 0abe e0d6 71bd
000000d0: 77d1 c7bc 5353 6ebc d425 18be f903 473d
000000e0: 3076 083d d40b 0ebe df4b 76bd 1140 0cbd
000000f0: 9434 b33d a401 553d 5a46 c03d a518 de3c
00000100: b00a 743d 0da4 9f3d 91c9 ab3d 6937 e43d
00000110: 7b71 ffba 5ba7 dcbd 3101 99bd c9c5 29bd
00000120: a70a 073d 9ade 793b 1e00 5ebd 455a bfbd
00000130: 6270 a1bd e357 953c 315a 2d3c ba9d 5a3d
00000140: 23e9 8f3d e9be 98bc cf6d 1ebd d611 d23d
00000150: aa76 38be 337a bb3d cb60 0e3e d986 ea3c
00000160: 4b04 843d e9d3 bdbb be66 a1bd 0182 ae3d
00000170: b8f1 963d 1608 45bc 325a 183c 2b17 d03d
00000180: f83f eebd 4a9f f3bc 9bdf 023d f2d3 6dbd
00000190: 9157 39bd 159d bc3d 694f d3bc 9f8e e7bd
000001a0: f21d e63b 5ad9 5c3d 501a 0bbe c2b5 f0bd
000001b0: 3924 ae3c c861 9b3d 8d73 c13d c336 11be
000001c0: 455f 223d 3298 a53d 2e3a 133d 76e3 3c3e
000001d0: e69e 593e da3e 22bd c5ab 153c 54de b43d
000001e0: 2b46 70bd da76 4b3d 52b1 8fbc 6cb5 aa3d
000001f0: c35b aabd 97ef a2bc e071 a83d ac99 223d
00000200: 7136 cf3c d166 0dbe ae9a 873c 7fe3 943d
00000210: e8f1 a0bc 988c 473c b915 553d f80c 0abd
00000220: ee4f 9f3d d439 cf3d 41b2 cc3d 1df7 6bbd
00000230: a248 8f3c 04f5 38bd b6b9 4cbd fae1 4e3c
00000240: ce98 5bbd 9107 fcbd d033 1ebd d4a0 9b3d
00000250: 2b28 903d c021 e8bd aa61 873d 2e0d a8bc
00000260: a7d3 343d 1ddc 543d bd20 7cbd c2c2 673d
00000270: 5b4f a0bc 4fc7 0b3d d096 01bc f399 55bd
00000280: 4261 96bd 6a74 09bd 2748 ffbc dd9a ac3d
00000290: bcfe f7bd 57e0 02be 31a2 0a3e f45e 10bc
000002a0: 93e8 18bd 8d7b fa3d c49b 54bd 1d65 19bd
000002b0: 4c55 753d 2ee0 c83c c7e6 4cbd 9bcb 9b3d
000002c0: a893 09be e233 48bd 044b 75bd c1dd bb3c
000002d0: 2dc5 1b3d 1f0d 5ebc 2ae8 a1bd baf1 edbd
000002e0: ad37 a73d 4a45 10be ebd5 e6bc 4798 183e
000002f0: c29f 8d3c fbca f53d 9354 7cbc 3e33 9cbd
00000300: 8d40 b8bd 4f9e 903d 3bb1 3ebd ded1 23be
00000310: 33e4 883d c272 dd3d 9560 99bd 6ff9 90bd
00000320: 27a1 b4bc 507a ffbc 5ee1 e23d e10c 6ebd
00000330: df26 3fbd b514 603d f045 b43c 4a63 723d
00000340: 3c30 6fbd ffc2 7bbd dddd 29bc 8c33 963d
00000350: 245c 0ebe afe4 4a3d a986 c2bd a317 c5bc
00000360: 06c6 aabb 5fdf 263d 71f3 883d 601c c23c
00000370: 9499 6d3d 314c fcbd 37a4 d73d 4a78 71bd
00000380: f1d1 4e3d 52ec febd ca2a cf3c 5e0b 94bd
00000390: 4b8b f23d 8d48 013e 9ab9 1cbd dcaa 833d
000003a0: a644 b1bc 1357 093c abdc 01bc 92d7 9ebd
000003b0: ff5c 623c 5c2f 9abd 5a28 183e 3aa4 8d3d
000003c0: a64a 333d 3d21 f73d 7f7a 12be 8415 113e
000003d0: 435b d23d 8408 7d3d f742 28be 9138 8ebd
000003e0: 4701 1c3e 335e dbbd c416 7cbc e1c0 713c
000003f0: b21e c13d 6ac5 77bd c6eb cb3c 178b b7bd

6Dense_84 f4 [120, 84]
0.07874088 -0.17025167 -0.009403696 -0.0076250564 -0.10901547 0.11414023 -0.0482822 0.00048068745
0.010876698 0.076111145 -0.14294305 -0.014536664 -0.11801321 -0.137864 0.11560708 0.10808276
-0.15427065 0.14756921 0.15360695 -0.030519336 -0.039134797 0.012053511 -0.14218555 0.00267822
0.030346215 0.12917425 0.022794662 0.02729724 -0.10197484 0.13506168 -0.09756056 -0.0529505
-0.16035998 -0.05718726 -0.06385745 -0.00091733603 0.13873284 0.060193863 0.14392032 0.13681383
-0.16587077 -0.12450357 0.0005915675 -0.072415024 0.008519799 0.08773141 0.07683192 -0.05630675
0.07083771 -0.14430135 0.028354837 0.004996732 -0.13659194 -0.13494085 0.09401931 0.16739862
0.12697741 -0.07115961 -0.073604986 0.16318099 -0.078148454 0.01639638 -0.11132389 -0.08952505
0.08823145 0.0117480755 -0.010741402 -0.023984432 -0.08340516 -0.03729031 0.14918946 0.07417421
-0.12559836 0.060328007 0.14860107 -0.010225377 -0.13414028 0.14343362 -0.108681865 0.023021623
-0.020803733 0.111411095 -0.16604346 0.12996544 -0.012925302 0.08332816 0.11837442 0.15173398
-0.13060576 0.055482376 -0.07202047 -0.0049617463 0.16189994 -0.026612738 0.05814373 0.021202732
-0.1682611 -0.14751348 0.06890162 -0.091354154 -0.1357273 -0.10078409 0.16628335 -0.14221795
-0.083971344 0.020844044 0.027482813 -0.17847934 -0.12870854 0.07374117 -0.17488715 -0.17444241
-0.017821925 -0.035945363 0.12369405 -0.11698948 0.04391665 -0.1546623 0.079089314 0.19362782
0.15319645 0.06400845 0.0647732 0.046150174 0.006016494 -0.052914627 -0.15514451 -0.052563302
0.1012012 0.063535914 0.15664564 -0.12815176 0.16096367 -0.0870038 0.14796399 -0.32326242
0.19429465 -0.04095079 0.14312251 -0.17357963 -0.041831806 -0.059628434 0.04985898 -0.0863107
0.07682794 -0.20192476 -0.10306741 0.18181723 -0.05070398 0.16972546 -0.024487037 -0.09218161
0.08273416 -0.17272626 -0.114693426 0.007456428 0.20764825 -0.16483687 0.14965522 -0.28615218
-0.16691412 -0.015721142 0.008850935 0.09606968 -0.12077038 -0.040877886 0.016050229 -0.15045576
-0.023040762 0.09160156 0.15964714 -0.025867406 -0.14838059 0.026294751 0.18065841 -0.044255275
0.08956104 -0.018960731 -0.008623546 0.05263867 -0.044332784 0.058657244 0.18490656 0.01374805
0.08599657 0.1590738 -0.03877117 -0.13184786 0.17352091 -0.06327574 0.08406575 0.027307654
0.055901386 0.06803874 -0.019574974 0.18882392 -0.12851731 0.12515888 0.025713189 -0.10679286
-0.074140765 0.19414915 0.060651373 -0.053015467 -0.10717784 -0.041457925 -0.047832463 -0.01515865
-0.19663902 -0.17386849 -0.0015226523 -0.13963781 0.18513592 -0.14695878 0.044858225 0.08997701
-0.16029832 0.01974057 0.022086626 0.062162086 0.18724231 -0.11500074 0.014294779 -0.17920667
0.044747647 0.095514834 0.17153548 -0.09511664 -0.02761955 0.124879025 0.006178888 0.039599005
0.16465089 -0.061688565 0.05427567 0.16254462 0.06535022 0.11635587 -0.1194498 0.11323536
0.10436025 -0.15407898 0.13438399 -0.082579896 -0.029267672 -0.0757304 0.1090985 0.075639576
0.062377516 -0.10832702 0.16074733 0.15788774 -0.17660081 -0.20907663 -0.12435413 0.15218085
00000000: e642 a13d 7456 2ebe f611 1abc 9cdb f9bb
00000010: 8143 dfbd 5ac2 e93d 8ec3 45bd c704 fc39
00000020: 2e34 323c 29e0 9b3d aa5f 12be 302b 6ebc
00000030: e9b0 f1bd 382c 0dbe 68c3 ec3d 7e5a dd3d
00000040: 20f9 1dbe 621c 173e 244b 1d3e b003 fabc
00000050: cf4b 20bd 177c 453c 1799 11be 1385 2f3b
00000060: a098 f83c 4146 043e dfbb ba3c 769e df3c
00000070: 2fd8 d0bd 9c4d 0a3e d5cd c7bd a0e2 58bd
00000080: 6835 24be 303d 6abd b2c7 82bd 6179 70ba
00000090: fb0f 0e3e d78d 763d d95f 133e ed18 0c3e
000000a0: 07da 29be bafb febd 6c13 1b3a 544e 94bd
000000b0: a196 0b3c 87ac b33d 0e5a 9d3d e8a1 66bd
000000c0: 5c13 913d bcc3 13be 6748 e83c a0bb a33b
000000d0: c2de 0bbe ef2d 0abe 328d c03d 8b6a 2b3e
000000e0: 5e06 023e 21bc 91bd 36be 96bd eb18 273e
000000f0: 4c0c a0bd b351 863c c8fd e3bd e958 b7bd
00000100: b1b2 b43d 007b 403c b5fc 2fbc 007b c4bc
00000110: 53d0 aabd b9bd 18bd 1fc5 183e a6e8 973d
00000120: db9c 00be 801a 773d e12a 183e 5788 27bc
00000130: 125c 09be 43e0 123e 9994 debd d897 bc3c
00000140: 976c aabc 802b e43d 4c07 2abe a915 053e
00000150: a5c4 53bc f4a7 aa3d 4a6e f23d 2760 1b3e
00000160: 84bd 05be 7d41 633d 787f 93bd 2596 a2bb
00000170: 19c9 253e f502 dabc 1f28 6e3d 5ab1 ad3c
00000180: a34c 2cbe c60d 17be 4b1c 8d3d e317 bbbd
00000190: 19fc 0abe e467 cebd 2f46 2a3e 95a1 11be
000001a0: 2bf9 abbd 21c1 aa3c a323 e13c 4ac3 36be
000001b0: 2ccc 03be 9c05 973d 9e15 33be 08a1 32be
000001c0: 49ff 91bc 723b 13bd 4e53 fd3d 2e98 efbd
000001d0: f2e1 333d cb5f 1ebe 94f9 a13d 5f46 463e
000001e0: 88df 1c3e dd16 833d d0a7 843d f707 3d3d
000001f0: 0226 c53b 02bd 58bd 34de 1ebe 9e4c 57bd
00000200: 9342 cf3d 1e1f 823d b767 203e 373a 03be
00000210: a9d3 243e 0c2f b2bd df83 173e a782 a5be
00000220: 2df5 463e 04bc 27bd b58e 123e dcbe 31be
00000230: d457 2bbd f23c 74bd ee38 4c3d aac3 b0bd
00000240: f857 9d3d 5dc5 4ebe 0215 d3bd 4c2e 3a3e
00000250: faae 4fbd 83cc 2d3e 0a99 c8bc b6c9 bcbd
00000260: 8770 a93d 27df 30be 63e4 eabd 0d55 f43b
00000270: bea1 543e ffca 28be 383f 193e 8a82 92be
00000280: 89eb 2abe a0c9 80bc 8303 113c 2ec0 c43d
00000290: 7656 f7bd 926f 27bd c57b 833c 1311 1abe
000002a0: fbbf bcbc 9999 bb3d 8a7a 233e e2e7 d3bc
000002b0: 15f1 17be 1768 d73c 85fe 383e 0545 35bd
000002c0: c76b b73d 8953 9bbc c649 0dbc a59b 573d
000002d0: 4b96 35bd 9442 703d 2558 3d3e 803f 613c
000002e0: f81e b03d 3ee4 223e 85ce 1ebd 2003 07be
000002f0: 77af 313e b696 81bd aa2a ac3d 4db4 df3c
00000300: daf8 643d e557 8b3d b25b a0bc 0f5b 413e
00000310: 0b9a 03be a629 003e 77a4 d23c 37b6 dabd
00000320: 1dd7 97bd 09cf 463e 936d 783d bf26 59bd
00000330: 0e80 dbbd c9cf 29bd f9eb 43bd fd5b 78bc
00000340: bd5b 49be 950a 32be bc93 c7ba 37fd 0ebe
00000350: 4594 3d3e 5d7c 16be 42bd 373d de45 b83d
00000360: 3e25 24be fab6 a13c 03ef b43c ac9d 7e3d
00000370: 73bc 3f3e 8285 ebbd a634 6a3c f481 37be
00000380: 4f49 373d 489d c33d ffa6 2f3e 83cc c2bd
00000390: 6542 e2bc 93c0 ff3d 4578 ca3b 9132 223d
000003a0: 3e9a 283e 26ad 7cbd 2a50 5e3d 1972 263e
000003b0: 56d6 853d fd4b ee3d 19a2 f4bd f1e7 e73d
000003c0: d4ba d53d e1c6 1dbe f59b 093e a61f a9bd
000003d0: c2c2 efbc 8a18 9bbd 096f df3d ece8 9a3d
000003e0: 917f 7f3d 8fda ddbd f39a 243e 53ad 213e
000003f0: d8d6 34be 2f18 56be 61ad febd 4cd5 1b3e

7Dense_10 f4 [84, 10]
-0.16050503 -0.108886905 -0.2661203 -0.17027338 -0.25365207 0.1993538 0.0363028 -0.053840846
0.22672805 -0.028384112 0.012743374 0.2795394 -0.15084127 0.2069204 -0.03617573 -0.20302725
0.08098173 -0.16399099 -0.1853247 -0.14128947 0.23479363 -0.29242283 0.07989349 -0.23452356
-0.02324214 -0.14531438 0.19634406 0.0179327 0.19236794 0.041554537 0.19215885 -0.2862197
0.113152124 0.1008746 0.21387345 -0.0057685697 -0.0024671326 -0.2267064 0.096394956 0.07591855
-0.2519573 0.080632314 -0.19646218 -0.19441253 0.22889417 -0.06773027 0.072369814 0.100429766
0.08086436 0.12588862 0.014415526 -0.23142979 -0.16524178 -0.16177493 -0.03678725 0.14404608
-0.17578854 -0.15389772 0.03639219 0.2311905 0.22772276 0.28223488 0.008081297 0.1641209
-0.046295606 -0.03855276 0.036296375 0.28493524 -0.28700292 -0.22665042 0.12901208 -0.19055827
-0.033904713 -0.21689175 0.1450743 -0.1713267 -0.011392507 0.14016648 -0.19393918 0.11169745
-0.29392037 -0.14805599 0.25681055 -0.24579665 -0.07746029 -0.26782084 -0.2513548 -0.168409
-0.12054426 -0.09664329 0.20066918 0.28027388 0.18404156 -0.14024305 -0.28791317 0.113213
0.045701478 -0.17658295 -0.14483343 0.08702217 -0.14177081 -0.13102482 0.16509938 0.20716111
0.14095259 0.23060834 0.29560417 -0.2386974 0.21039006 -0.07145856 0.048844516 -0.10530721
-0.23819666 0.16266699 -0.14190847 0.19034892 0.1685274 0.18829949 0.19133098 0.21487674
-0.24246848 0.32051748 0.09912813 0.15902506 0.011824766 -0.3849561 -0.16334996 0.21117797
-0.22037205 -0.15393277 0.14022706 0.030944189 -0.073026456 0.115687296 -0.28440207 0.13137501
0.09935539 -0.34299397 -0.16556357 -0.106102325 -0.28990087 0.046851747 -0.10942409 0.057271827
-0.16728868 0.27885976 -0.04807377 -0.097247936 -0.1631436 0.0011635278 0.0299664 -0.035789568
-0.16826572 0.025635824 0.038946092 0.1750669 0.17431545 0.16078934 0.24729711 0.03204817
0.16868858 0.018785734 0.046631467 0.037868436 -0.053350806 -0.07462679 -0.11063885 -0.08469944
0.1551458 0.078434035 -0.30115828 0.11143969 0.266904 -0.29751277 0.09301966 -0.085948296
-0.19021225 -0.21513271 -0.28510797 -0.031767357 0.16803981 -0.076873764 0.0010908855 -0.30296445
0.21051735 -0.274673 -0.3288713 0.23343283 -0.20794092 -0.09521443 -0.018398771 -0.17722936
-0.240142 0.134541 0.0035576033 -0.052980833 0.0040306565 0.029898485 0.18368153 0.005702794
0.09999171 0.15117589 0.07763705 -0.28885445 0.013288747 -0.12819017 0.050011974 0.078725435
-0.26935712 -0.18818966 -0.28406745 -0.14664331 -0.05752775 0.11422851 0.15962581 -0.22803661
-0.19328433 0.09831632 -0.23264684 -0.2857101 0.03778398 0.15812494 -0.08365223 0.016867012
-0.115092136 0.10170452 0.18491551 -0.29712966 0.11370578 -0.03345986 -0.06645137 -0.14751002
0.265042 0.29478306 -0.3647894 -0.26837757 0.07965335 0.10693003 0.29442215 0.22255751
0.22405039 -0.14829013 0.021743065 0.16631094 -0.06968655 -0.24800417 0.23331138 -0.0078051775
0.0060995384 -0.03980617 -0.18396759 -0.08687273 0.018894577 0.08999861 0.030714856 -0.23297359
00000000: 6e5b 24be 1900 dfbd ec40 88be 255c 2ebe
00000010: afde 81be 6723 4c3e 3fb2 143d 3888 5cbd
00000020: 662b 683e cc85 e8bc 96c9 503c ca1f 8f3e
00000030: 2276 1abe f1e2 533e 012d 14bd 60e6 4fbe
00000040: c0d9 a53d 41ed 27be c2c5 3dbe 30ae 10be
00000050: be6d 703e 72b8 95be 339f a33d f226 70be
00000060: 4d66 bebc 4bcd 14be 6b0e 493e 99e7 923c
00000070: 1afc 443e 1735 2a3d 4ac5 443e 638b 92be
00000080: 4dbc e73d 5897 ce3d a401 5b3e 4506 bdbb
00000090: 9eaf 21bb b925 68be b86a c53d 2f7b 9b3d
000000a0: 8c00 81be 8e22 a53d 622d 49be 1414 47be
000000b0: 3c63 6a3e 2bb6 8abd a036 943d 1fae cd3d
000000c0: 379c a53d f2e8 003e 192f 6c3c eefb 6cbe
000000d0: 2435 29be 54a8 25be 3aae 16bd d180 133e
000000e0: e901 34be 5d97 1dbe fa0f 153d 34bd 6c3e
000000f0: 2830 693e 1781 903e 6b67 043c 4f0f 283e
00000100: 76a0 3dbd 80e9 1dbd 82ab 143d 08e3 913e
00000110: 0cf2 92be 0c17 68be be1b 043e b521 43be
00000120: abdf 0abd df18 5ebe 5b8e 143e 4470 2fbe
00000130: a3a7 3abc cd87 0f3e fe97 46be a2c1 e43d
00000140: bb7c 96be fd9b 17be ac7c 833e 1eb2 7bbe
00000150: 80a3 9ebd d01f 89be 94b1 80be 6973 2cbe
00000160: e9df f6bd ebec c5bd 397c 4d3e 0f80 8f3e
00000170: 6475 3c3e e09b 0fbe 5b69 93be 38dc e73d
00000180: 7931 3b3d 29d2 34be 374f 14be ae38 b23d
00000190: 5e2c 11be 5f2b 06be d00f 293e 0b22 543e
000001a0: e055 103e 9824 6c3e 6e59 973e 176d 74be
000001b0: 7e70 573e de58 92bd 3011 483d 4eab d7bd
000001c0: d3e9 73be 2d92 263e 7450 11be d4ea 423e
000001d0: 7292 2c3e 95d1 403e 45ec 433e a608 5c3e
000001e0: a849 78be de1a a43e b003 cb3d 77d7 223e
000001f0: aabc 413c f718 c5be 3645 27be 0a3f 583e
00000200: 36a9 61be 8da0 1dbe af97 0f3e ab7e fd3c
00000210: e58e 95bd 76ed ec3d 269d 91be 2c87 063e
00000220: d77a cb3d e89c afbe 7f89 29be 2d4c d9bd
00000230: e36d 94be 9ee7 3f3d bd19 e0bd dd95 6a3d
00000240: b94d 2bbe b5c6 8e3e 00e9 44bd ed29 c7bd
00000250: 1e0f 27be 8481 983a 187c f53c 1598 12bd
00000260: d94d 2cbe 3802 d23c f085 1f3d bd44 333e
00000270: c07f 323e f6a5 243e 743b 7d3e f144 033d
00000280: b3bc 2c3e 8ae4 993c a300 3f3d ef1b 1b3d
00000290: 6086 5abd eed5 98bd 9f96 e2bd e676 adbd
000002a0: 8ade 1e3e 06a2 a03d 6b31 9abe 7e3a e43d
000002b0: a4a7 883e 9853 98be 1781 be3d a905 b0bd
000002c0: 00c7 42be c04b 5cbe acf9 91be 7d1e 02bd
000002d0: a112 2c3e fe6f 9dbd 0bfc 8e3a 281e 9bbe
000002e0: dc91 573e f1a1 8cbe d261 a8be 0409 6f3e
000002f0: 77ee 54be c8ff c2bd 05b9 96bc 9d7b 35be
00000300: c9e7 75be 1ec5 093e ae26 693b 6e02 59bd
00000310: 9913 843b abed f43c 0317 3c3e 81de ba3b
00000320: 74c8 cc3d dacd 1a3e 2c00 9f3d bbe4 93be
00000330: 0bb9 593c 4944 03be 5bd9 4c3d cd3a a13d
00000340: 2de9 89be cab4 40be 4a71 91be aa29 16be
00000350: 38a2 6bbd a3f0 e93d f374 233e 6e82 69be
00000360: 54ec 45be 115a c93d f93a 6ebe 9848 92be
00000370: 60c3 1a3d 81eb 213e dc51 abbd b02c 8a3c
00000380: 6db5 ebbd 764a d03d 7e5a 3d3e 6121 98be
00000390: 93de e83d 350d 09bd a817 88bd de0c 17be
000003a0: 96b3 873e ceed 963e adc5 babe c968 89be
000003b0: 4c21 a33d 22fe da3d 80be 963e 1ee6 633e
000003c0: 776d 653e 5ed9 17be 831e b23c 6a4d 2a3e
000003d0: d2b7 8ebd cef4 7dbe 2ee9 6e3e 93c2 ffbb
000003e0: a3de c73b cb0b 23bd 0062 3cbe 54ea b1bd
000003f0: cdc8 9a3c 3151 b83d b99d fb3c a190 6ebe
