snntb/snntb_audio_runs/log/gui/audio_classifier_60/normalization/activations/weights.npz (npz, 52456 bytes, 3 tensors)

1Dense_128 f4 [40, 128]
00000000: 426f 663d 879d 753d a1bf 413c fde9 ca3d
00000010: c6b6 8cbd 5b00 d0bc 3a1c 4c3d 61a7 4c3c
00000020: 9810 473d 376e 3fbd b1b5 aa3c a992 093d
00000030: b788 a2bc 7aca 7dbd 7826 71bd c7e5 b13b
00000040: 6422 c5ba 85de 1c3c 0d62 51bd 5016 c33c
00000050: 3d92 e9ba 29af 7abd f0e5 623c 6292 9a3d
00000060: 3f2d 8dbc 6e74 d4bd 494a ed39 b5b5 debc
00000070: 60b2 493a 7d0a 963d 1352 e9bd cbf1 dbbd
00000080: 7486 013e 469b 41bb bb20 783d 1220 08bd
00000090: c30a 7d3d 85ca 3e3d 9f4b 3e3d 9317 7a3d
000000a0: fa70 80bd 234f a439 f056 4bbb a79d 5c3b
000000b0: 7cb0 f3bb 9e90 98bc f7ff 5e3d 8574 ecbc
000000c0: 20f4 e33c 89d3 07bd a203 2fbd ef17 71bd
000000d0: 2f49 d13d 9b48 efbd fe8a b43d 5ebd 123c
000000e0: da6c fcbc ae07 9a3c a654 31bd 35e3 a03d
000000f0: 14db adbc 01b2 f4bc 06a1 993d a201 9a3d
00000100: c4a5 efbd d232 1cbc 8620 c2bd a255 943d
00000110: 90bb 9cbd 314e 263c a234 d2bc 24f6 bb3d
00000120: b2ce 9bbd dda5 a2bc 9ee8 79bc 7de8 47bb
00000130: 7b9a 4fbc ac33 3a3d ac2a 383d 8ca7 07bc
00000140: 9d82 80bd 2fb2 9a3d ef4e a23c acfe 2e3d
00000150: ba1e bbbd 5064 abbd 082e 1b3b 2a33 34bd
00000160: a758 2a3d 0b68 be3d 358c 803b ea13 2dbd
00000170: b37d 26bd 35ad 463c fe68 89bd 5eab dbbd
00000180: 37c7 53bd d5b8 ed3c 20d3 68bd 3715 ca3c
00000190: db50 753d 665f aa3c 9b5b 37bd 3250 e1bd
000001a0: d4b9 84bb 9020 afbc 2fa4 033d f5a9 a03c
000001b0: 0975 713d 8267 f83b 6745 f33d f991 e6bd
000001c0: cf56 40bc 9525 6b3a b645 483b 3a25 063e
000001d0: 3fc9 81ba c442 d9bd ef55 bcbd b691 553d
000001e0: 205f 81bc 1c9b 77bd 2c89 bd3c fdea 4dbd
000001f0: 33ff efbd d3d5 0a3d 5779 9f3d fdf9 c2bc
00000200: ef9d 1ebe d879 dc3d f2e7 88bd 2fcf 403e
00000210: fb13 20be 3415 6b3d f627 bb3d 9b34 64bd
00000220: 57f0 e43d 57c7 8abd 7769 9dbd 4ef8 28bc
00000230: d2ed a3bb ff43 5dbd 23a3 4bbd cdfd 0e3e
00000240: fbd4 5f3d 0578 df3d af75 3abd a00d 473d
00000250: ec43 37bd c94f 1cbe b584 31bc 4326 723d
00000260: c2e7 35be 8c15 10be 9fa8 cabd d4ca 21bd
00000270: 32c0 ba3d e2e9 5e3e 10e7 b33d 7844 fabd
00000280: 866d 88be f156 3abe de1e ae3d 71b7 1a3d
00000290: 09d9 8e3d 340b cb3c d9ce 8abd 35bd 80be
000002a0: 47fd c33d d077 e4bb 8f5a 253d e7ad 663d
000002b0: 2429 633d 7bdd 45be 50ae 57be 22a1 6ebe
000002c0: d339 4bbd 967b 2bbb 150f 41be 9c44 f5bc
000002d0: c4b7 003d 7c34 d33c b866 f73d 5efc aebd
000002e0: 436b 8ebd 6f81 9dbe ac73 a0bd 4a41 153e
000002f0: 7500 6bbe f3a0 ab3c 523f e83d b488 7f3d
00000300: 58dd 65bd 0a1a 41be 688d 0abe fad6 72be
00000310: cd00 8abd 4b5e 00be 80a5 a63d 829f 43be
00000320: d293 15bc 03d2 993c 70db bcbd 07a5 d73d
00000330: e6af d93b bfff 8bbd 1bc9 9fbe a206 f43b
00000340: 34e1 a83d 3fbb a3be 5c46 0fbe bbf5 b3bd
00000350: 122b 35be bc0b 54be fea3 fabd c6c2 933d
00000360: 6f76 67be 18b2 d83d 1754 6bbe f7c2 41be
00000370: a3d7 f7bd cd05 1fbe dc8a b03d ad26 6fbe
00000380: 6def 983d 81f2 953d 5f9a 1abe d97b 063e
00000390: fdd1 81bd 6865 ed3d c543 8dbd 2c6e 38be
000003a0: 641f 93be b802 773d a7e6 6fbe 68f1 7bbe
000003b0: cf06 9d3d 0837 06be 3d3a 51be bd0e 49bd
000003c0: 85cf 99bd 2365 a53c b757 cdbe dfef 49be
000003d0: ccca d63d 2181 52bd f4eb 093c 82fd 8f3c
000003e0: 068c 5cbe 3b2d ffbc bcac 30bd ccb8 713d
000003f0: bfad f2bd 6ef3 3ebe f8fb a73d 9217 8f3c
0.056258447 0.059964683 0.011825473 0.09907911 -0.06870799 -0.025390795 0.049831606 0.012491078
0.04859981 -0.04673597 0.02083859 0.03358713 -0.019840581 -0.061960675 -0.058874577 0.005429003
-0.0015040156 0.009574537 -0.0511189 0.02381435 -0.0017820072 -0.061202202 0.013848767 0.075474516
-0.01723349 -0.1037377 0.0004525951 -0.027186254 0.00076941215 0.07326219 -0.113926075 -0.10739478
0.12648946 -0.0029542013 0.06057809 -0.03323371 0.06177784 0.046579856 0.046458837 0.06105764
-0.062715486 0.0003133948 -0.003102716 0.0033663304 -0.00743681 -0.018623646 0.054443326 -0.028864155
0.027826369 -0.03316072 -0.042728074 -0.058860715 0.10219037 -0.1168377 0.08815573 0.0089562815
-0.030813623 0.01880249 -0.043293618 0.07855836 -0.021222629 -0.029870035 0.07501416 0.07519843
-0.11701539 -0.009533601 -0.094788596 0.07242896 -0.07652962 0.010150478 -0.025659863 0.09177807
-0.076077834 -0.01985448 -0.015253214 -0.0030503564 -0.012671108 0.045459434 0.04496257 -0.008279692
-0.062749125 0.07553517 0.01981303 0.042723343 -0.0913672 -0.083687425 0.002367856 -0.043994106
0.04158845 0.09297188 0.003922964 -0.04225532 -0.04064722 0.012126257 -0.06709479 -0.10726045
-0.051703658 0.029018799 -0.05684197 0.02466832 0.059891563 0.020797443 -0.044765096 -0.11001624
-0.0040504728 -0.021377832 0.032139 0.019612292 0.058949504 0.0075806985 0.11878472 -0.11258311
-0.011739447 0.0008970139 0.003055913 0.13100138 -0.0009901895 -0.10608438 -0.09196078 0.052140914
-0.01579243 -0.06045066 0.023136698 -0.05027293 -0.11718597 0.033895325 0.077868156 -0.023800844
-0.15489934 0.10765427 -0.06684865 0.18829034 -0.15632622 0.057393268 0.09138481 -0.05571423
0.11178654 -0.06776302 -0.076861314 -0.010313107 -0.0050027156 -0.054019924 -0.049716126 0.13964005
0.054646473 0.10911564 -0.045522388 0.04859698 -0.04474251 -0.1526481 -0.0108348625 0.05911852
-0.1776419 -0.1407072 -0.09895443 -0.039500073 0.091186896 0.21768907 0.08784306 -0.12220091
-0.2664606 -0.18197228 0.08501981 0.0377726 0.0697499 0.024785616 -0.06777734 -0.25144354
0.09569793 -0.0069722906 0.040369567 0.05631819 0.055459157 -0.1932277 -0.21062589 -0.23303655
-0.049615692 -0.0026166192 -0.1885341 -0.029939942 0.031425253 0.025781862 0.12080139 -0.08544229
-0.06954052 -0.30762812 -0.07834563 0.14575687 -0.22949393 0.02095077 0.113402024 0.06238623
-0.056119293 -0.1885759 -0.13530505 -0.2371482 -0.06738434 -0.1253597 0.08137035 -0.19103816
-0.009129481 0.0187769 -0.09221542 0.10529523 0.006643283 -0.06835889 -0.3120812 0.0074470798
0.08246079 -0.31978795 -0.13991684 -0.08787104 -0.17692211 -0.20707601 -0.1223831 0.072148845
-0.22603773 0.10580844 -0.22981296 -0.1892203 -0.12101676 -0.15529557 0.08620235 -0.23354597
0.07467542 0.073216446 -0.1509795 0.13133182 -0.0633888 0.11591607 -0.06897692 -0.18010777
-0.28734887 0.060305327 -0.2342783 -0.24603808 0.07667314 -0.1310693 -0.20432372 -0.04908632
-0.07510284 0.020189827 -0.40105984 -0.1972041 0.10487899 -0.05139268 0.008418072 0.017576937
-0.2153779 -0.031149497 -0.043133482 0.059014127 -0.11849546 -0.18647549 0.08202356 0.017467294

2Dense_64 f4 [128, 64]
00000000: feb3 eabd 6750 f2bc 5463 ce3d 49ed 3e3e
00000010: 32f8 473e 9ca8 b03d 07df c0bc cef1 623d
00000020: 2834 383e 3b5c ad3e d876 d0bc 53c4 6c3e
00000030: 8ecf e7bd ef55 34be 205e 0fbd a085 0dbe
00000040: 886d f63c 9066 c5bd db14 04bc 51e1 84bd
00000050: b860 fdbd fe32 bebd eb92 a1bc 4eb7 993d
00000060: 1ea7 863c 9ceb 72bd 679a 173e 7b6e 5bbe
00000070: 1667 ea3d fc43 dc3c 4add 55bd b5be 0c3e
00000080: 7ce8 78be 72ba 313d 1052 48bc 5f92 52be
00000090: 761f ed3d 337b 2c3e 509c 943e 5366 223d
000000a0: feec 0bbd 863d 35be d7ac 1ebb e028 59be
000000b0: 76a8 e43d 0d82 d73c 40f1 96bb 5ca7 75bd
000000c0: 7431 72bd 7d69 acbd c423 1d3e 08c5 9dbd
000000d0: 2b05 4fbe c632 14be bb35 af3d 33b6 803d
000000e0: 7401 293d 38a2 133e a232 c8be bfa0 993d
000000f0: 7588 583d b3e2 9b3d c50e 0e3e 92fa 86bb
00000100: 0f4d d73d dd34 2cbe e410 1a3e d837 89be
00000110: 9cdc e7bb 7cb1 eb3d c4ec 453e 0323 92be
00000120: ca55 33be 23d7 dfbe 0aea 7b3d b91e 593c
00000130: 327b 533d a2a3 373d 55cb b03d 9ffd b23d
00000140: cd2d adbe 13a3 a2bd 84fb a5bb 9182 0fbe
00000150: ff12 52bd 7381 09bc fc2e 90bc 0616 06bd
00000160: c6c7 363c 80ba bb3b 89e7 6abe 6dca dc3d
00000170: ffea 71be c1cb d3bd b748 013e 6a54 0d3e
00000180: 64f2 c1bc 5407 d63d cdbe b7bb 28a6 0e3e
00000190: 3079 723c 13d7 1d3e 3d8a c13d 75ec b8bd
000001a0: 61e6 2f3e f575 cfbe 9c0b 1a3e f1ca abbb
000001b0: 15bb 3dbe 7d79 6bbe 2a13 f6bd e3e2 e13d
000001c0: ae0e 33bd 55eb d13d 3d76 30bd 8fea 85bc
000001d0: b27a 3bbc af04 59bd 043c 43bd 8a66 983d
000001e0: 4469 f53d 92f7 36bc da35 d03e 3963 ec3d
000001f0: 1b51 0ebe d7bd 2abd bfd1 a73e 9b75 00be
00000200: d8ec 153e c8e7 0b3e 9c0d 11be 4c75 ab3d
00000210: e96c 0e3e f877 d2bd 6538 cfbd 5122 98be
00000220: 01c0 8ebe 1c22 8dbd d875 a53d a9af 87bc
00000230: 7f78 7e3e 99c2 8dbe c5f9 55be 57c4 103e
00000240: 9eea 50be bf49 0dbe 0579 9a3d 68e0 bf3d
00000250: 4617 6bbe 6160 bbbd 38ec 15be fe0b 943d
00000260: 1a96 35be 9994 bfbd a3b7 c33c ce25 c23d
00000270: 4e83 4a3d b48f 00bf a225 a83d 5943 95bb
00000280: ae3a cf3e 1e2a 61bc e971 1b3c dbbe 3dbe
00000290: 108a 32bd 7415 fe3a 613f 8bbd e794 2d3e
000002a0: 1880 a43c 71b9 f63c e336 c73b 7e26 ad3d
000002b0: b154 143d 2a95 bd3c 3ffb 44bd c357 553d
000002c0: 7753 5b3d e9e2 823e d320 19be 7b52 323d
000002d0: 5532 75be 9428 c9bd 6c17 3f3e b409 5fbc
000002e0: 33ab a83d eccf 683e e462 8b3e e572 923c
000002f0: b064 963b 6b74 ca3d 67e3 7abe 443d 17bf
00000300: 1598 f43d 01ca 32bd 0e78 293e 401e 01be
00000310: 3565 803d 584e 89bd 82d0 0fbe 3069 92be
00000320: 5f25 46be ad28 a8bc 1bac ba3c e88f 953e
00000330: fe11 20be 9503 8b3d 1d15 fbbc 19b5 8fbd
00000340: cd13 ff3c 2f37 cabd f30c 2c3d b467 58be
00000350: aaf5 613d 6930 cd3c c31f 623e 6bd0 aabd
00000360: cddd ee3c 991b a8bd 626e a73d 6b1e 1d3d
00000370: 222a 53be 5eeb fabe bd59 9b3a 576c 60be
00000380: 0461 dbba 2d81 36bc e5a1 edbd 6db8 04bf
00000390: f043 0cbc 5ac7 26be e567 a6be fab4 18bd
000003a0: 85bc b8bd 6f71 3a3d 2924 b2bd a0f6 7bbd
000003b0: 2df2 98ba 186e 91be b1b4 8fbd bd9f da3d
000003c0: 6d63 153e e4db 9a3d 139e d33c 8c96 e9ba
000003d0: 9243 c13d f1e5 dfbd 7259 ab3c 27ed f9bc
000003e0: 5765 4dbe 74cb 103e 91d5 7e3c ec6f 033d
000003f0: 3faa 2e3d 5e30 923d b269 0b3e 4955 3fbd
-0.11460112 -0.029579354 0.10077539 0.18645205 0.19528273 0.0862591 -0.023543848 0.055406384
0.17988646 0.3385943 -0.025447294 0.23121767 -0.11318885 -0.17610906 -0.035001874 -0.13820505
0.030081525 -0.09638703 -0.008061613 -0.06488288 -0.12371963 -0.0928707 -0.019723376 0.07505666
0.01643711 -0.059306726 0.14804994 -0.21428864 0.11445443 0.026887886 -0.05221299 0.13744624
-0.24307436 0.0433907 -0.0122265965 -0.20563649 0.11578266 0.16843872 0.29025507 0.039648365
-0.03416156 -0.1769925 -0.0024211907 -0.21206999 0.11164944 0.02630713 -0.004606396 -0.05997406
-0.059129193 -0.08418558 0.15345675 -0.07703596 -0.20216815 -0.14472494 0.0855517 0.06284752
0.04126115 0.1441735 -0.3910113 0.07501363 0.05286451 0.07611599 0.13872822 -0.004119226
0.10512745 -0.1681704 0.15045506 -0.26800418 -0.0070758592 0.11508462 0.193286 -0.28542337
-0.17513195 -0.43718824 0.061502494 0.013251954 0.05163116 0.044833787 0.086325325 0.08739781
-0.33824006 -0.0794126 -0.0050653834 -0.14014651 -0.051287647 -0.0083926795 -0.017600529 -0.032735847
0.011156028 0.0057290196 -0.22939886 0.10780797 -0.236248 -0.10341597 0.12625395 0.13801733
-0.023675151 0.104506165 -0.005607462 0.13930571 0.014799401 0.15414076 0.09450195 -0.090294756
0.17177726 -0.40519682 0.15043491 -0.0052426984 -0.18528397 -0.22995563 -0.12015374 0.11029603
-0.04371517 0.10249964 -0.04308151 -0.016347198 -0.011442827 -0.052982982 -0.047664657 0.07441433
0.119829684 -0.011167424 0.40666085 0.11542363 -0.13898127 -0.04168495 0.3277721 -0.12544863
0.1464113 0.13662636 -0.14165348 0.08371982 0.13908733 -0.102767885 -0.10118178 -0.2971368
-0.27880862 -0.068912715 0.080791175 -0.016563253 0.24850653 -0.2768753 -0.20896061 0.14137398
-0.20402 -0.13797663 0.07542614 0.09368974 -0.22958097 -0.09149242 -0.14640892 0.0722885
-0.1773304 -0.09354515 0.023891276 0.09479867 0.04944163 -0.50219274 0.08210303 -0.0045551476
0.40474457 -0.013742952 0.0094876075 -0.18529837 -0.043588698 0.0019385056 -0.06799198 0.16951333
0.020080611 0.030117722 0.006079541 0.084546074 0.03621358 0.023142416 -0.04809117 0.05208565
0.053546395 0.25563744 -0.14953928 0.04353569 -0.23944981 -0.09822193 0.18661278 -0.013613153
0.08235779 0.22735566 0.27223885 0.017877052 0.0045896396 0.09885486 -0.2450081 -0.5907786
0.1194307 -0.043649677 0.16549703 -0.12609196 0.06269304 -0.06704396 -0.14044383 -0.28595877
-0.19350193 -0.020527208 0.022787144 0.29211354 -0.15631863 0.067877926 -0.030649716 -0.070169635
0.031137371 -0.09873807 0.042004537 -0.2113331 0.055165924 0.025047498 0.22082429 -0.08340534
0.029158497 -0.08208389 0.08175351 0.038359087 -0.20621541 -0.49007696 0.0011852306 -0.21916328
-0.0016737287 -0.011139196 -0.116031446 -0.5184391 -0.008561119 -0.16286984 -0.3250114 -0.037281968
-0.09020332 0.045518335 -0.08698303 -0.061514497 -0.0011668854 -0.28404307 -0.07016886 0.10674999
0.14588709 0.07561472 0.025832212 -0.0017821356 0.09436716 -0.1093253 0.020916674 -0.03050859
-0.2005819 0.14140111 0.015553848 0.03208916 0.042642828 0.071381316 0.13614538 -0.046712194

3Dense_10 f4 [64, 10]
00000000: 1be5 a03e cffa ea3d a27c abbd a6f2 c1bd
00000010: 4624 8b3d b5c2 9b3d 9895 e1bd d50f 083d
00000020: 7d3f 723c 1ae8 51be 0637 aa3d 4ac9 0f3e
00000030: f41b 893e 298d 16bf 1980 32bd 0cee 87be
00000040: 5407 703e 5b3d 953c c29f efbe 68c5 97bc
00000050: 087b ae3d 36d9 73be 56ea 133e 697a 24bd
00000060: 3611 79ba b3cb 6d3e f403 c0bd 5932 39be
00000070: 00c0 073e 6354 153d 45d6 f2bd 19bc 393e
00000080: ea0a 7b3c 5140 a0bd 38b3 bebc 1a5b e03d
00000090: 13f8 0abe f26c 233c 47e6 8b3d 9d8a 69be
000000a0: c6b6 5a3c 9b7d c93d e55d acbd b2b8 96bd
000000b0: c57a 893d 1192 92be 864d ddbe 8278 033e
000000c0: 4826 323e 0c0b d5be 474e fe3d 4c61 54be
000000d0: 126a 3a3e 566a e03c 467f 86be 48d6 07bd
000000e0: 9c1a 3cbe 2f68 083e 9629 563e c507 dbbe
000000f0: 6054 e0be fd80 c8bd b2dd cb3d d0b4 4abe
00000100: 0a6a dbbe 521a 0f3f 3723 493e bdd4 573d
00000110: 947d 5f3e 77a9 88bc 9186 5d3e b801 203e
00000120: acc8 bdbd 9953 6e3e 3366 ae3d a6c2 a8be
00000130: 0ff7 303e aa3e b73d 72e9 15be d95e 12be
00000140: 6808 c9be cc7d 9c3e 16be 813c 8bfb 643e
00000150: 893c 913e b002 dcbe acf8 d7bd a26b bb3e
00000160: 7c3e 7e3d 44cc 3ebe f177 52be a6fe a1be
00000170: e951 c0bd 1171 3ebd 2922 67bb f0f7 c9bd
00000180: 4e63 e1bd 08dc 9d3e f05a 6d3e 6687 01be
00000190: 7d29 87be 0f27 6a3d b85a 68be c0aa 6bbd
000001a0: c3e3 45be 4335 30be 0a53 f23d 61bf 7dbe
000001b0: def8 bebd dc9d 8ebe d97b ccbd bdd7 f8be
000001c0: 0d7a 20be 23c5 75bd ed84 a23e ad91 4c3d
000001d0: e52e 99be 0465 3ebd 8726 25be 4754 fabd
000001e0: 43b8 2f3e 7777 a83c c166 e2bd 483f c73b
000001f0: 062b 00bb 6854 a73d 32af 293e f991 093e
00000200: c1db 0ebd 582a e7bd 52f1 89be fdec 75bd
00000210: b658 82be 489a 133e a531 20be f2f8 bcbe
00000220: 41f2 c03c 09d0 57be 7cb5 e0be 9313 b43e
00000230: 7e81 f83d 66ac 263d 4346 63be 7d67 a8be
00000240: 1851 11bf ae50 5bbe 6b11 1cbf 3ab2 a2be
00000250: a205 94bd 2684 19bf d3d5 b8bc e171 3f3c
00000260: bc69 4cbd 483f b4be 8dea 4abe ebf2 26be
00000270: c9fe 95be 4849 0ebc c9f5 b93d 5609 efbe
00000280: f345 81be 55b1 84bd d5d4 0ebe f2ed 1abd
00000290: d7d4 ab3c e167 32bf 3bb5 80be 623b 54be
000002a0: 79f0 dc3d 8403 363e 5b0b 3cbd 87a6 94be
000002b0: 0d40 4d3e 1938 8abe ae71 83bd 10a7 4f3e
000002c0: f3af b8bd 6ec0 493d 4184 63be 40a5 5d3d
000002d0: e762 d2bd 82d4 0b3e 2100 c5bd 2633 52be
000002e0: 0525 3f3e 85e9 9b3d 45c6 213d a188 8bbe
000002f0: bdbb acbd 82ea bd3c 492b 5ebe 6e6e 24bc
00000300: 1d1f 803e 0c6b 973c b574 3a3e a4e2 e33d
00000310: cc4f 163e e360 f43d 2e1d 6e3d df19 5f3c
00000320: ae66 883c 7853 b93d 91c1 fabd a0d1 43be
00000330: 5494 2abe 4644 eebd 6ee0 2d3d 46d7 26bc
00000340: c4ed 1fbe 601b 643e 2485 44be 8a1a 10bd
00000350: a6dd 1c3d f9bc 133e 04ea 3b3e 536e ad3d
00000360: 2df3 bcbd d58b 84be 3179 21bd 6d68 7ebe
00000370: 0762 9fbe a87e 97bb 100b 7dbb 325f 89be
00000380: e046 983e c98d c83e 928b ad3e 55af 32be
00000390: 2ddb 72be bd0e d23b e0aa 5cbe ddc7 bbbd
000003a0: 1b6d 0bbe c574 0ebf 159b 95be 9cbf 2bbd
000003b0: ae1d 01bf 43aa 99be 1524 793e 9882 14bd
000003c0: 0c7a f5bd c131 0ebe 1dd9 18be 3353 a5bd
000003d0: cb2c d2bd a98a 1ebe f95f 74be b8ff 07be
000003e0: 7e73 803e 235f dbbd 0fc7 023e 86f6 fe3d
000003f0: 6c7a 833d 21b3 f93b bc4c 54be 2b7a 553d
0.31424794 0.11473619 -0.08373381 -0.0947011 0.06794028 0.07605497 -0.11014861 0.033218224
0.014785645 -0.20498696 0.08311276 0.1404163 0.2677914 -0.58809143 -0.043579195 -0.26548803
0.23440295 0.018217733 -0.46801573 -0.018526748 0.0851956 -0.23813328 0.14444861 -0.040155802
-0.0009501161 0.23222236 -0.09375754 -0.18085612 0.13256836 0.03645743 -0.11857275 0.1813816
0.015322426 -0.078247674 -0.023278818 0.10954876 -0.13571195 0.009974705 0.06831031 -0.22806783
0.013349241 0.098384105 -0.084163465 -0.073594466 0.067128696 -0.28627065 -0.43223208 0.12838939
0.17397416 -0.4160999 0.12417274 -0.20740241 0.18204525 0.027394455 -0.26268977 -0.03316334
-0.18369526 0.13320993 0.20914301 -0.42779365 -0.43814373 -0.097902276 0.099543944 -0.19795537
-0.4285434 0.55899537 0.1964234 0.052693117 0.21825248 -0.01668237 0.21633364 0.15625656
-0.09266791 0.23274077 0.08515587 -0.32961005 0.17281745 0.08947499 -0.14639834 -0.14293994
-0.39264226 0.30564725 0.01583771 0.22361581 0.28366497 -0.429708 -0.10545477 0.36605555
0.06207131 -0.18632609 -0.20553567 -0.31639594 -0.09390623 -0.046494547 -0.0035268164 -0.098617435
-0.11005269 0.30831933 0.23179221 -0.12649307 -0.2639884 0.057166155 -0.22690856 -0.057535887
-0.19325165 -0.17207818 0.11832245 -0.24780037 -0.093248114 -0.27854812 -0.099845596 -0.48602095
-0.15671559 -0.060002457 0.3174204 0.049943615 -0.2991859 -0.046483055 -0.16127978 -0.12223106
0.17160134 0.020564778 -0.11054755 0.0060805418 -0.0019556894 0.08170396 0.16570738 0.1343459
-0.034877542 -0.11287373 -0.26941925 -0.060040463 -0.25458306 0.14414322 -0.15643938 -0.3690868
0.023553016 -0.21075453 -0.43888462 0.35171184 0.12134074 0.040691756 -0.22194771 -0.32891455
-0.56764364 -0.21417496 -0.6096408 -0.317766 -0.07227637 -0.5996727 -0.022562897 0.011684866
-0.049905524 -0.3520453 -0.19816037 -0.16303603 -0.29295948 -0.008684464 0.09080083 -0.4668681
-0.2524868 -0.06479136 -0.13948376 -0.03782458 0.020975513 -0.69689757 -0.25138268 -0.20725778
0.10788054 0.17774779 -0.045909267 -0.290333 0.20043965 -0.26995924 -0.06418167 0.20278573
-0.09017935 0.04925578 -0.2221842 0.054112673 -0.102727704 0.13655284 -0.09619165 -0.20527324
0.18666466 0.076129 0.039495725 -0.27252677 -0.08434246 0.023183111 -0.216962 -0.010036094
0.25023738 0.018483661 0.18208583 0.11127213 0.14678878 0.11932542 0.058133297 0.013617008
0.016650524 0.090491235 -0.12243951 -0.19122934 -0.16658145 -0.11634116 0.04245036 -0.010183161
-0.15618044 0.22276068 -0.19191414 -0.03518156 0.038297318 0.14427556 0.18350989 0.08468308
-0.092260696 -0.25887933 -0.039422218 -0.24844523 -0.31129476 -0.004623253 -0.003861133 -0.2683044
0.29741573 0.39170673 0.33895546 -0.17449696 -0.23716421 0.0064104483 -0.21549559 -0.0916898
-0.13615839 -0.55646926 -0.2921988 -0.04193078 -0.5043591 -0.30012712 0.2433017 -0.036257356
-0.11986169 -0.13886167 -0.14926572 -0.080725096 -0.1026245 -0.15482582 -0.23864736 -0.13281143
0.25088114 -0.10711505 0.12771247 0.12449364 0.064198345 0.007620231 -0.20732397 0.05211846
